…
  File "/home/armaan/miniconda3/envs/dribblebot/lib/python3.8/site-packages/wandb/apis/public.py", line 880, in run
    self._runs[path] = Run(self.client, entity, project, run_id)
  File "/home/armaan/miniconda3/envs/dribblebot/lib/python3.8/site-packages/wandb/apis/public.py", line 1720, in __init__
    self.load(force=not _attrs)
  File "/home/armaan/miniconda3/envs/dribblebot/lib/python3.8/site-packages/wandb/apis/public.py", line 1824, in load
    raise ValueError("Could not find run %s" % self)
wandb.errors.CommError: Could not find run <Run improbableailab/dribbling/j34kr9ds (not found)>
Adaptation Module: Sequential(
  (0): Linear(in_features=1125, out_features=256, bias=True)
  (1): ELU(alpha=1.0)
  (2): Linear(in_features=256, out_features=128, bias=True)
  (3): ELU(alpha=1.0)
  (4): Linear(in_features=128, out_features=6, bias=True)
)
Actor MLP: Sequential(
  (0): Linear(in_features=1131, out_features=512, bias=True)
  (1): ELU(alpha=1.0)
  (2): Linear(in_features=512, out_features=256, bias=True)
  (3): ELU(alpha=1.0)
  (4): Linear(in_features=256, out_features=128, bias=True)
  (5): ELU(alpha=1.0)
  (6): Linear(in_features=128, out_features=12, bias=True)
)
Critic MLP: Sequential(
  (0): Linear(in_features=1131, out_features=512, bias=True)
  (1): ELU(alpha=1.0)
  (2): Linear(in_features=512, out_features=256, bias=True)
  (3): ELU(alpha=1.0)
  (4): Linear(in_features=256, out_features=128, bias=True)
  (5): ELU(alpha=1.0)
  (6): Linear(in_features=128, out_features=1, bias=True)
)