…
  self.roughness_samples = torch.tensor(self.terrain_cell_roughnesses).view(self.env.cfg.terrain.num_rows,
/home/armaan/dribblebot/dribblebot/terrains/tm_box_terrain.py:337: UserWarning: To copy construct from a tensor, it is recommended to use sourceTensor.clone().detach() or sourceTensor.clone().detach().requires_grad_(True), rather than torch.tensor(sourceTensor).
  self.restitution_samples = torch.tensor(self.terrain_cell_restitutions).view(self.env.cfg.terrain.num_rows,
[32m13:18:32 INFO: This is wandb-osh v1.2.2 using communication directory /home/armaan/.wandb_osh_command_dir
Adaptation Module: Sequential(
  (0): Linear(in_features=1125, out_features=256, bias=True)
  (1): ELU(alpha=1.0)
  (2): Linear(in_features=256, out_features=128, bias=True)
  (3): ELU(alpha=1.0)
  (4): Linear(in_features=128, out_features=6, bias=True)
)
Actor MLP: Sequential(
  (0): Linear(in_features=1131, out_features=512, bias=True)
  (1): ELU(alpha=1.0)
  (2): Linear(in_features=512, out_features=256, bias=True)
  (3): ELU(alpha=1.0)
  (4): Linear(in_features=256, out_features=128, bias=True)
  (5): ELU(alpha=1.0)
  (6): Linear(in_features=128, out_features=12, bias=True)
)
Critic MLP: Sequential(
  (0): Linear(in_features=1131, out_features=512, bias=True)
  (1): ELU(alpha=1.0)
  (2): Linear(in_features=512, out_features=256, bias=True)
  (3): ELU(alpha=1.0)
  (4): Linear(in_features=256, out_features=128, bias=True)
  (5): ELU(alpha=1.0)
  (6): Linear(in_features=128, out_features=1, bias=True)
)
[⚠️ Warning] resume is True, but checkpoint or path not provided.
START RECORDING
Saving model at iteration 0
[33m13:18:37 WARNING: Syncing not active or too slow: Command /home/armaan/.wandb_osh_command_dir/35e2c4.command file still exists
[33m13:18:40 WARNING: Syncing not active or too slow: Command /home/armaan/.wandb_osh_command_dir/35e2c4.command file still exists
…
