…
    body = wandb.restore(RunnerArgs.resume_checkpoint, run_path=RunnerArgs.resume_path)
  File "/home/armaan/miniconda3/envs/dribblebot/lib/python3.8/site-packages/wandb/sdk/wandb_run.py", line 3684, in restore
    path = os.path.join(root, name)
  File "/home/armaan/miniconda3/envs/dribblebot/lib/python3.8/posixpath.py", line 90, in join
    genericpath._check_arg_types('join', a, *p)
  File "/home/armaan/miniconda3/envs/dribblebot/lib/python3.8/genericpath.py", line 152, in _check_arg_types
    raise TypeError('%s() argument must be str or bytes, not %r' %
TypeError: join() argument must be str or bytes, not 'NoneType'
Adaptation Module: Sequential(
  (0): Linear(in_features=1125, out_features=256, bias=True)
  (1): ELU(alpha=1.0)
  (2): Linear(in_features=256, out_features=128, bias=True)
  (3): ELU(alpha=1.0)
  (4): Linear(in_features=128, out_features=6, bias=True)
)
Actor MLP: Sequential(
  (0): Linear(in_features=1131, out_features=512, bias=True)
  (1): ELU(alpha=1.0)
  (2): Linear(in_features=512, out_features=256, bias=True)
  (3): ELU(alpha=1.0)
  (4): Linear(in_features=256, out_features=128, bias=True)
  (5): ELU(alpha=1.0)
  (6): Linear(in_features=128, out_features=12, bias=True)
)
Critic MLP: Sequential(
  (0): Linear(in_features=1131, out_features=512, bias=True)
  (1): ELU(alpha=1.0)
  (2): Linear(in_features=512, out_features=256, bias=True)
  (3): ELU(alpha=1.0)
  (4): Linear(in_features=256, out_features=128, bias=True)
  (5): ELU(alpha=1.0)
  (6): Linear(in_features=128, out_features=1, bias=True)
)